…
Tomato_Leaf_Mold => 20
Potato_healthy => 15
Tomato_Septoria_leaf_spot => 20
Tomato_Spider_mites_Two_spotted_spider_mite => 20
Tomato_Early_blight => 20
Potato_Late_blight => 20
Tomato_Bacterial => 20
[INFO] Image loading completed
total picked data : 295
x_train data shape (2649, 256, 256, 3)
x_test data shape (295, 256, 256, 3)
y_train data shape 2649
y_test data shape 295
_________________________________________________________________
Layer (type)                 Output Shape              Param #   
=================================================================
conv2d_1 (Conv2D)            (None, 256, 256, 32)      896       
_________________________________________________________________
activation_1 (Activation)    (None, 256, 256, 32)      0         
_________________________________________________________________
batch_normalization_1 (Batch (None, 256, 256, 32)      128       
_________________________________________________________________
max_pooling2d_1 (MaxPooling2 (None, 85, 85, 32)        0         
_________________________________________________________________
dropout_1 (Dropout)          (None, 85, 85, 32)        0         
_________________________________________________________________
conv2d_2 (Conv2D)            (None, 85, 85, 64)        18496     
_________________________________________________________________
activation_2 (Activation)    (None, 85, 85, 64)        0         
_________________________________________________________________
batch_normalization_2 (Batch (None, 85, 85, 64)        256       
_________________________________________________________________
conv2d_3 (Conv2D)            (None, 85, 85, 128)       73856     
_________________________________________________________________
activation_3 (Activation)    (None, 85, 85, 128)       0         
_________________________________________________________________
batch_normalization_3 (Batch (None, 85, 85, 128)       512       
_________________________________________________________________
max_pooling2d_2 (MaxPooling2 (None, 42, 42, 128)       0         
_________________________________________________________________
flatten_1 (Flatten)          (None, 225792)            0         
_________________________________________________________________
dense_1 (Dense)              (None, 1024)              231212032 
_________________________________________________________________
activation_4 (Activation)    (None, 1024)              0         
_________________________________________________________________
batch_normalization_4 (Batch (None, 1024)              4096      
_________________________________________________________________
dropout_2 (Dropout)          (None, 1024)              0         
_________________________________________________________________
dense_2 (Dense)              (None, 15)                15375     
_________________________________________________________________
activation_5 (Activation)    (None, 15)                0         
=================================================================
Total params: 231,325,647
Trainable params: 231,323,151
Non-trainable params: 2,496
_________________________________________________________________
[INFO] training network...
Epoch 1/20

 1/82 [..............................] - ETA: 21:12 - loss: 4.3691 - acc: 0.0312
 2/82 [..............................] - ETA: 14:24 - loss: 4.1876 - acc: 0.1562
…
